{"config": {"layers": [{"config": {"dtype": "float32", "name": "input_15", "sparse": false, "batch_input_shape": [null, null, null, 3]}, "class_name": "InputLayer", "name": "input_15", "inbound_nodes": []}, {"config": {"kernel_initializer": {"config": {"scale": 1.0, "mode": "fan_avg", "distribution": "uniform", "dtype": "float32", "seed": null}, "class_name": "VarianceScaling"}, "activation": "relu", "filters": 128, "activity_regularizer": null, "name": "conv2d_66", "bias_regularizer": null, "batch_input_shape": [null, null, null, 3], "padding": "same", "kernel_constraint": null, "dilation_rate": [1, 1], "trainable": true, "kernel_size": [6, 3], "bias_initializer": {"config": {"dtype": "float32"}, "class_name": "Zeros"}, "dtype": "float32", "strides": [1, 1], "data_format": "channels_last", "kernel_regularizer": null, "bias_constraint": null, "use_bias": true}, "class_name": "Conv2D", "name": "conv2d_66", "inbound_nodes": [[["input_15", 0, 0, {}]]]}, {"config": {"trainable": true, "pool_size": [2, 2], "dtype": "float32", "strides": [2, 2], "name": "max_pooling2d_41", "data_format": "channels_last", "padding": "valid"}, "class_name": "MaxPooling2D", "name": "max_pooling2d_41", "inbound_nodes": [[["conv2d_66", 0, 0, {}]]]}, {"config": {"kernel_initializer": {"config": {"scale": 1.0, "mode": "fan_avg", "distribution": "uniform", "dtype": "float32", "seed": null}, "class_name": "VarianceScaling"}, "activation": "relu", "filters": 256, "activity_regularizer": null, "name": "conv2d_67", "bias_regularizer": null, "batch_input_shape": [null, null, null, 3], "padding": "same", "kernel_constraint": null, "dilation_rate": [1, 1], "trainable": true, "kernel_size": [6, 3], "bias_initializer": {"config": {"dtype": "float32"}, "class_name": "Zeros"}, "dtype": "float32", "strides": [1, 1], "data_format": "channels_last", "kernel_regularizer": null, "bias_constraint": null, "use_bias": true}, "class_name": "Conv2D", "name": "conv2d_67", "inbound_nodes": [[["max_pooling2d_41", 0, 0, {}]]]}, {"config": {"trainable": true, "pool_size": [2, 2], "dtype": "float32", "strides": [2, 2], "name": "max_pooling2d_42", "data_format": "channels_last", "padding": "valid"}, "class_name": "MaxPooling2D", "name": "max_pooling2d_42", "inbound_nodes": [[["conv2d_67", 0, 0, {}]]]}, {"config": {"kernel_initializer": {"config": {"scale": 1.0, "mode": "fan_avg", "distribution": "uniform", "dtype": "float32", "seed": null}, "class_name": "VarianceScaling"}, "activation": "relu", "filters": 256, "activity_regularizer": null, "name": "conv2d_68", "bias_regularizer": null, "padding": "same", "kernel_constraint": null, "dilation_rate": [1, 1], "trainable": true, "kernel_size": [6, 3], "bias_initializer": {"config": {"dtype": "float32"}, "class_name": "Zeros"}, "dtype": "float32", "strides": [1, 1], "data_format": "channels_last", "kernel_regularizer": null, "bias_constraint": null, "use_bias": true}, "class_name": "Conv2D", "name": "conv2d_68", "inbound_nodes": [[["max_pooling2d_42", 0, 0, {}]]]}, {"config": {"trainable": true, "pool_size": [2, 2], "dtype": "float32", "strides": [2, 2], "name": "max_pooling2d_43", "data_format": "channels_last", "padding": "valid"}, "class_name": "MaxPooling2D", "name": "max_pooling2d_43", "inbound_nodes": [[["conv2d_68", 0, 0, {}]]]}, {"config": {"kernel_initializer": {"config": {"scale": 1.0, "mode": "fan_avg", "distribution": "uniform", "dtype": "float32", "seed": null}, "class_name": "VarianceScaling"}, "activation": "relu", "filters": 512, "activity_regularizer": null, "name": "conv2d_69", "bias_regularizer": null, "padding": "same", "kernel_constraint": null, "dilation_rate": [1, 1], "trainable": true, "kernel_size": [6, 3], "bias_initializer": {"config": {"dtype": "float32"}, "class_name": "Zeros"}, "dtype": "float32", "strides": [1, 1], "data_format": "channels_last", "kernel_regularizer": null, "bias_constraint": null, "use_bias": true}, "class_name": "Conv2D", "name": "conv2d_69", "inbound_nodes": [[["max_pooling2d_43", 0, 0, {}]]]}, {"config": {"trainable": true, "pool_size": [2, 2], "dtype": "float32", "strides": [2, 2], "name": "max_pooling2d_44", "data_format": "channels_last", "padding": "valid"}, "class_name": "MaxPooling2D", "name": "max_pooling2d_44", "inbound_nodes": [[["conv2d_69", 0, 0, {}]]]}, {"config": {"kernel_initializer": {"config": {"scale": 1.0, "mode": "fan_avg", "distribution": "uniform", "dtype": "float32", "seed": null}, "class_name": "VarianceScaling"}, "activation": "relu", "filters": 512, "activity_regularizer": null, "name": "conv2d_70", "bias_regularizer": null, "padding": "same", "kernel_constraint": null, "dilation_rate": [1, 1], "trainable": true, "kernel_size": [6, 3], "bias_initializer": {"config": {"dtype": "float32"}, "class_name": "Zeros"}, "dtype": "float32", "strides": [1, 1], "data_format": "channels_last", "kernel_regularizer": null, "bias_constraint": null, "use_bias": true}, "class_name": "Conv2D", "name": "conv2d_70", "inbound_nodes": [[["max_pooling2d_44", 0, 0, {}]]]}, {"config": {"dtype": "float32", "name": "add_10", "trainable": true}, "class_name": "Add", "name": "add_10", "inbound_nodes": [[["conv2d_70", 0, 0, {}], ["max_pooling2d_44", 0, 0, {}]]]}, {"config": {"kernel_initializer": {"config": {"scale": 1.0, "mode": "fan_avg", "distribution": "uniform", "dtype": "float32", "seed": null}, "class_name": "VarianceScaling"}, "activation": "relu", "filters": 256, "activity_regularizer": null, "name": "conv2d_transpose_29", "bias_regularizer": null, "padding": "valid", "kernel_constraint": null, "dilation_rate": [1, 1], "trainable": true, "kernel_size": [2, 2], "bias_initializer": {"config": {"dtype": "float32"}, "class_name": "Zeros"}, "dtype": "float32", "strides": [2, 2], "data_format": "channels_last", "kernel_regularizer": null, "bias_constraint": null, "use_bias": true}, "class_name": "Conv2DTranspose", "name": "conv2d_transpose_29", "inbound_nodes": [[["add_10", 0, 0, {}]]]}, {"config": {"dtype": "float32", "name": "add_11", "trainable": true}, "class_name": "Add", "name": "add_11", "inbound_nodes": [[["conv2d_transpose_29", 0, 0, {}], ["max_pooling2d_43", 0, 0, {}]]]}, {"config": {"kernel_initializer": {"config": {"scale": 1.0, "mode": "fan_avg", "distribution": "uniform", "dtype": "float32", "seed": null}, "class_name": "VarianceScaling"}, "activation": "relu", "filters": 256, "activity_regularizer": null, "name": "conv2d_transpose_30", "bias_regularizer": null, "padding": "valid", "kernel_constraint": null, "dilation_rate": [1, 1], "trainable": true, "kernel_size": [2, 2], "bias_initializer": {"config": {"dtype": "float32"}, "class_name": "Zeros"}, "dtype": "float32", "strides": [2, 2], "data_format": "channels_last", "kernel_regularizer": null, "bias_constraint": null, "use_bias": true}, "class_name": "Conv2DTranspose", "name": "conv2d_transpose_30", "inbound_nodes": [[["add_11", 0, 0, {}]]]}, {"config": {"dtype": "float32", "name": "add_12", "trainable": true}, "class_name": "Add", "name": "add_12", "inbound_nodes": [[["conv2d_transpose_30", 0, 0, {}], ["max_pooling2d_42", 0, 0, {}]]]}, {"config": {"kernel_initializer": {"config": {"scale": 1.0, "mode": "fan_avg", "distribution": "uniform", "dtype": "float32", "seed": null}, "class_name": "VarianceScaling"}, "activation": "relu", "filters": 128, "activity_regularizer": null, "name": "conv2d_transpose_31", "bias_regularizer": null, "padding": "valid", "kernel_constraint": null, "dilation_rate": [1, 1], "trainable": true, "kernel_size": [2, 2], "bias_initializer": {"config": {"dtype": "float32"}, "class_name": "Zeros"}, "dtype": "float32", "strides": [2, 2], "data_format": "channels_last", "kernel_regularizer": null, "bias_constraint": null, "use_bias": true}, "class_name": "Conv2DTranspose", "name": "conv2d_transpose_31", "inbound_nodes": [[["add_12", 0, 0, {}]]]}, {"config": {"dtype": "float32", "name": "add_13", "trainable": true}, "class_name": "Add", "name": "add_13", "inbound_nodes": [[["conv2d_transpose_31", 0, 0, {}], ["max_pooling2d_41", 0, 0, {}]]]}, {"config": {"kernel_initializer": {"config": {"scale": 1.0, "mode": "fan_avg", "distribution": "uniform", "dtype": "float32", "seed": null}, "class_name": "VarianceScaling"}, "activation": "relu", "filters": 128, "activity_regularizer": null, "name": "conv2d_transpose_32", "bias_regularizer": null, "padding": "valid", "kernel_constraint": null, "dilation_rate": [1, 1], "trainable": true, "kernel_size": [2, 2], "bias_initializer": {"config": {"dtype": "float32"}, "class_name": "Zeros"}, "dtype": "float32", "strides": [2, 2], "data_format": "channels_last", "kernel_regularizer": null, "bias_constraint": null, "use_bias": true}, "class_name": "Conv2DTranspose", "name": "conv2d_transpose_32", "inbound_nodes": [[["add_13", 0, 0, {}]]]}, {"config": {"rate": 0.5, "trainable": true, "noise_shape": null, "dtype": "float32", "name": "dropout_5", "seed": null}, "class_name": "Dropout", "name": "dropout_5", "inbound_nodes": [[["conv2d_transpose_32", 0, 0, {}]]]}, {"config": {"kernel_initializer": {"config": {"scale": 1.0, "mode": "fan_avg", "distribution": "uniform", "dtype": "float32", "seed": null}, "class_name": "VarianceScaling"}, "activation": "softmax", "filters": 34, "activity_regularizer": null, "name": "conv2d_71", "bias_regularizer": null, "padding": "same", "kernel_constraint": null, "dilation_rate": [1, 1], "trainable": true, "kernel_size": [1, 1], "bias_initializer": {"config": {"dtype": "float32"}, "class_name": "Zeros"}, "dtype": "float32", "strides": [1, 1], "data_format": "channels_last", "kernel_regularizer": null, "bias_constraint": null, "use_bias": true}, "class_name": "Conv2D", "name": "conv2d_71", "inbound_nodes": [[["dropout_5", 0, 0, {}]]]}], "name": "model_11", "input_layers": [["input_15", 0, 0]], "output_layers": [["conv2d_71", 0, 0]]}, "class_name": "Model", "backend": "tensorflow", "keras_version": "2.1.6-tf"}